module {
  func.func @tf2onnx(%arg0: !torch.vtensor<[1,49,40,1],ui8>) -> !torch.vtensor<[1,4],f32> attributes {torch.onnx_meta.ir_version = 7 : si64, torch.onnx_meta.opset_version = 13 : si64, torch.onnx_meta.opset_versions = {ai.onnx.ml = 2 : si64}, torch.onnx_meta.producer_name = "tf2onnx", torch.onnx_meta.producer_version = "1.17.0 None"} {
    %0 = torch.operator "onnx.Constant"() {torch.onnx.value = dense_resource<zero_point__29> : tensor<ui8>} : () -> !torch.vtensor<[],ui8>
    %1 = torch.operator "onnx.Constant"() {torch.onnx.value = dense_resource<zero_point__16> : tensor<si32>} : () -> !torch.vtensor<[],si32>
    %2 = torch.operator "onnx.Constant"() {torch.onnx.value = dense_resource<zero_point__14> : tensor<ui8>} : () -> !torch.vtensor<[],ui8>
    %3 = torch.operator "onnx.Constant"() {torch.onnx.value = dense_resource<zero_point__12> : tensor<ui8>} : () -> !torch.vtensor<[],ui8>
    %4 = torch.operator "onnx.Constant"() {torch.onnx.value = dense_resource<zero_point__10> : tensor<ui8>} : () -> !torch.vtensor<[],ui8>
    %5 = torch.operator "onnx.Constant"() {torch.onnx.value = dense_resource<_weights_quant_1_FakeQuantWithMinMaxVars_transpose> : tensor<4000x4xui8>} : () -> !torch.vtensor<[4000,4],ui8>
    %6 = torch.operator "onnx.Constant"() {torch.onnx.value = dense_resource<_weights_quant_FakeQuantWithMinMaxVars> : tensor<8x1x10x8xui8>} : () -> !torch.vtensor<[8,1,10,8],ui8>
    %7 = torch.operator "onnx.Constant"() {torch.onnx.value = dense_resource<scale__9> : tensor<f32>} : () -> !torch.vtensor<[],f32>
    %8 = torch.operator "onnx.Constant"() {torch.onnx.value = dense_resource<scale__28> : tensor<f32>} : () -> !torch.vtensor<[],f32>
    %9 = torch.operator "onnx.Constant"() {torch.onnx.value = dense_resource<scale__22> : tensor<f32>} : () -> !torch.vtensor<[],f32>
    %10 = torch.operator "onnx.Constant"() {torch.onnx.value = dense_resource<scale__15> : tensor<f32>} : () -> !torch.vtensor<[],f32>
    %11 = torch.operator "onnx.Constant"() {torch.onnx.value = dense_resource<scale__13> : tensor<f32>} : () -> !torch.vtensor<[],f32>
    %12 = torch.operator "onnx.Constant"() {torch.onnx.value = dense_resource<scale__11> : tensor<f32>} : () -> !torch.vtensor<[],f32>
    %13 = torch.operator "onnx.Constant"() {torch.onnx.value = dense_resource<reshape_shape__6> : tensor<2xsi64>} : () -> !torch.vtensor<[2],si64>
    %14 = torch.operator "onnx.Constant"() {torch.onnx.value = dense_resource<new_shape__31> : tensor<4xsi64>} : () -> !torch.vtensor<[4],si64>
    %15 = torch.operator "onnx.Constant"() {torch.onnx.value = dense_resource<Conv2D_bias> : tensor<8xsi32>} : () -> !torch.vtensor<[8],si32>
    %none = torch.constant.none
    %16 = torch.operator "onnx.DequantizeLinear"(%5, %7, %4) : (!torch.vtensor<[4000,4],ui8>, !torch.vtensor<[],f32>, !torch.vtensor<[],ui8>) -> !torch.vtensor<[4000,4],f32>
    %17 = torch.operator "onnx.DequantizeLinear"(%6, %12, %3) : (!torch.vtensor<[8,1,10,8],ui8>, !torch.vtensor<[],f32>, !torch.vtensor<[],ui8>) -> !torch.vtensor<[8,1,10,8],f32>
    %18 = torch.operator "onnx.Reshape"(%arg0, %14) : (!torch.vtensor<[1,49,40,1],ui8>, !torch.vtensor<[4],si64>) -> !torch.vtensor<[1,1,49,40],ui8>
    %19 = torch.operator "onnx.DequantizeLinear"(%18, %11, %2) : (!torch.vtensor<[1,1,49,40],ui8>, !torch.vtensor<[],f32>, !torch.vtensor<[],ui8>) -> !torch.vtensor<[1,1,49,40],f32>
    %20 = torch.operator "onnx.DequantizeLinear"(%15, %10, %1) : (!torch.vtensor<[8],si32>, !torch.vtensor<[],f32>, !torch.vtensor<[],si32>) -> !torch.vtensor<[8],f32>
    %21 = torch.operator "onnx.Conv"(%19, %17, %20) {torch.onnx.dilations = [1 : si64, 1 : si64], torch.onnx.group = 1 : si64, torch.onnx.kernel_shape = [10 : si64, 8 : si64], torch.onnx.pads = [4 : si64, 3 : si64, 5 : si64, 3 : si64], torch.onnx.strides = [2 : si64, 2 : si64]} : (!torch.vtensor<[1,1,49,40],f32>, !torch.vtensor<[8,1,10,8],f32>, !torch.vtensor<[8],f32>) -> !torch.vtensor<[1,8,25,20],f32>
    %22 = torch.operator "onnx.QuantizeLinear"(%21, %9, %2) : (!torch.vtensor<[1,8,25,20],f32>, !torch.vtensor<[],f32>, !torch.vtensor<[],ui8>) -> !torch.vtensor<[1,8,25,20],ui8>
    %23 = torch.operator "onnx.Transpose"(%22) {torch.onnx.perm = [0 : si64, 2 : si64, 3 : si64, 1 : si64]} : (!torch.vtensor<[1,8,25,20],ui8>) -> !torch.vtensor<[1,25,20,8],ui8>
    %24 = torch.operator "onnx.Reshape"(%23, %13) : (!torch.vtensor<[1,25,20,8],ui8>, !torch.vtensor<[2],si64>) -> !torch.vtensor<[1,4000],ui8>
    %25 = torch.operator "onnx.DequantizeLinear"(%24, %9, %2) : (!torch.vtensor<[1,4000],ui8>, !torch.vtensor<[],f32>, !torch.vtensor<[],ui8>) -> !torch.vtensor<[1,4000],f32>
    %26 = torch.operator "onnx.MatMul"(%25, %16) : (!torch.vtensor<[1,4000],f32>, !torch.vtensor<[4000,4],f32>) -> !torch.vtensor<[1,4],f32>
    %27 = torch.operator "onnx.QuantizeLinear"(%26, %8, %0) : (!torch.vtensor<[1,4],f32>, !torch.vtensor<[],f32>, !torch.vtensor<[],ui8>) -> !torch.vtensor<[1,4],ui8>
    %28 = torch.operator "onnx.DequantizeLinear"(%27, %8, %0) : (!torch.vtensor<[1,4],ui8>, !torch.vtensor<[],f32>, !torch.vtensor<[],ui8>) -> !torch.vtensor<[1,4],f32>
    return %28 : !torch.vtensor<[1,4],f32>
  }
}

{-#
  dialect_resources: {
    builtin: {
      zero_point__29: "0x080000008F",
      zero_point__16: "0x0800000000000000",
      zero_point__14: "0x0800000000",
      zero_point__12: "0x0800000084",
      zero_point__10: "0x080000007E",
      _weights_quant_1_FakeQuantWithMinMaxVars_transpose: "…",
      _weights_quant_FakeQuantWithMinMaxVars: "…",
      scale__9: "0x0800000087FFDB39",
      scale__28: "0x080000009CD2B53D",
      scale__22: "0x0800000009F5833D",
      scale__15: "0x080000002D959838",
      scale__13: "0x08000000C6D0D03D",
      scale__11: "0x080000008A0F3B3A",
      reshape_shape__6: "0x08000000FFFFFFFFFFFFFFFFA00F000000000000",
      new_shape__31: "…",
      Conv2D_bias: "…"
    }
  }
#-}
